…
2017-09-29 20:24:29.265095: I tensorflow/core/common_runtime/gpu/gpu_device.cc:961] DMA: 0
2017-09-29 20:24:29.265102: I tensorflow/core/common_runtime/gpu/gpu_device.cc:971] 0:   Y
2017-09-29 20:24:29.265110: I tensorflow/core/common_runtime/gpu/gpu_device.cc:1030] Creating TensorFlow device (/gpu:0) -> (device: 0, name: GeForce GTX 1070, pci bus id: 0000:05:00.0)
50000 train samples
10000 test samples
(50000, 32, 32, 3) train shape
_________________________________________________________________
Layer (type)                 Output Shape              Param #
=================================================================
input_1 (InputLayer)         (None, 32, 32, 3)         0
_________________________________________________________________
conv2d_1 (Conv2D)            (None, 32, 32, 32)        896
_________________________________________________________________
activation_1 (Activation)    (None, 32, 32, 32)        0
_________________________________________________________________
conv2d_2 (Conv2D)            (None, 30, 30, 32)        9248
_________________________________________________________________
activation_2 (Activation)    (None, 30, 30, 32)        0
_________________________________________________________________
max_pooling2d_1 (MaxPooling2 (None, 15, 15, 32)        0
_________________________________________________________________
dropout_1 (Dropout)          (None, 15, 15, 32)        0
_________________________________________________________________
conv2d_3 (Conv2D)            (None, 15, 15, 64)        18496
_________________________________________________________________
activation_3 (Activation)    (None, 15, 15, 64)        0
_________________________________________________________________
conv2d_4 (Conv2D)            (None, 13, 13, 64)        36928
_________________________________________________________________
activation_4 (Activation)    (None, 13, 13, 64)        0
_________________________________________________________________
max_pooling2d_2 (MaxPooling2 (None, 6, 6, 64)          0
_________________________________________________________________
dropout_2 (Dropout)          (None, 6, 6, 64)          0
_________________________________________________________________
flatten_1 (Flatten)          (None, 2304)              0
_________________________________________________________________
dense_1 (Dense)              (None, 512)               1180160
_________________________________________________________________
activation_5 (Activation)    (None, 512)               0
_________________________________________________________________
dropout_3 (Dropout)          (None, 512)               0
_________________________________________________________________
dense_2 (Dense)              (None, 10)                5130
_________________________________________________________________
activation_6 (Activation)    (None, 10)                0
=================================================================
Total params: 1,250,858
Trainable params: 1,250,858
Non-trainable params: 0
_________________________________________________________________
None
Not using data augmentation.
Train on 50000 samples, validate on 10000 samples
Epoch 1/5

   32/50000 [..............................] - ETA: 4226s - loss: 2.2722 - acc: 0.2188
   96/50000 [..............................] - ETA: 1448s - loss: 2.2907 - acc: 0.1562
…
2017-09-29 20:26:04.210933: I tensorflow/core/common_runtime/gpu/gpu_device.cc:1030] Creating TensorFlow device (/gpu:1) -> (device: 1, name: GeForce GTX 1070, pci bus id: 0000:06:00.0)
50000 train samples
10000 test samples
(50000, 32, 32, 3) train shape
Using GPUs: /gpu:0, /gpu:1

MULTI-GPU MODEL: sequential_1
____________________________________________________________________________________________________
Layer (type)                     Output Shape          Param #     Connected to
====================================================================================================
input_1 (InputLayer)             (None, 32, 32, 3)     0
____________________________________________________________________________________________________
stage_cpuSliceIn0_Dev0 (Lambda)  (None, 32, 32, 3)     0           input_1[0][0]
____________________________________________________________________________________________________
stage_cpuSliceIn0_Dev1 (Lambda)  (None, 32, 32, 3)     0           input_1[0][0]
____________________________________________________________________________________________________
sequential_1 (Sequential)        (None, 10)            1250858     stage_cpuSliceIn0_Dev0[0][0]
                                                                   stage_cpuSliceIn0_Dev1[0][0]
____________________________________________________________________________________________________
concatenate_1 (Concatenate)      (None, 10)            0           sequential_1[1][0]
                                                                   sequential_1[2][0]
====================================================================================================
Total params: 1,250,858
Trainable params: 1,250,858
Non-trainable params: 0
____________________________________________________________________________________________________
None

	SUBMODEL SUMMARY: sequential_1
	_________________________________________________________________
	Layer (type)                 Output Shape              Param #
	=================================================================
	input_1 (InputLayer)         (None, 32, 32, 3)         0
	_________________________________________________________________
	conv2d_1 (Conv2D)            (None, 32, 32, 32)        896
	_________________________________________________________________
	activation_1 (Activation)    (None, 32, 32, 32)        0
	_________________________________________________________________
	conv2d_2 (Conv2D)            (None, 30, 30, 32)        9248
	_________________________________________________________________
	activation_2 (Activation)    (None, 30, 30, 32)        0
	_________________________________________________________________
	max_pooling2d_1 (MaxPooling2 (None, 15, 15, 32)        0
	_________________________________________________________________
	dropout_1 (Dropout)          (None, 15, 15, 32)        0
	_________________________________________________________________
	conv2d_3 (Conv2D)            (None, 15, 15, 64)        18496
	_________________________________________________________________
	activation_3 (Activation)    (None, 15, 15, 64)        0
	_________________________________________________________________
	conv2d_4 (Conv2D)            (None, 13, 13, 64)        36928
	_________________________________________________________________
	activation_4 (Activation)    (None, 13, 13, 64)        0
	_________________________________________________________________
	max_pooling2d_2 (MaxPooling2 (None, 6, 6, 64)          0
	_________________________________________________________________
	dropout_2 (Dropout)          (None, 6, 6, 64)          0
	_________________________________________________________________
	flatten_1 (Flatten)          (None, 2304)              0
	_________________________________________________________________
	dense_1 (Dense)              (None, 512)               1180160
	_________________________________________________________________
	activation_5 (Activation) 2017-09-29 20:26:04.645727: I tensorflow/core/common_runtime/gpu/gpu_device.cc:1030] Creating TensorFlow device (/gpu:0) -> (device: 0, name: GeForce GTX 1070, pci bus id: 0000:05:00.0)
2017-09-29 20:26:04.645767: I tensorflow/core/common_runtime/gpu/gpu_device.cc:1030] Creating TensorFlow device (/gpu:1) -> (device: 1, name: GeForce GTX 1070, pci bus id: 0000:06:00.0)
   (None, 512)               0
	_________________________________________________________________
	dropout_3 (Dropout)          (None, 512)               0
	_________________________________________________________________
	dense_2 (Dense)              (None, 10)                5130
	_________________________________________________________________
	activation_6 (Activation)    (None, 10)                0
	=================================================================
	Total params: 1,250,858
	Trainable params: 1,250,858
	Non-trainable params: 0
	_________________________________________________________________
	None

Not using data augmentation.
Train on 50000 samples, validate on 10000 samples
Epoch 1/5

   64/50000 [..............................] - ETA: 1758s - loss: 2.2746 - acc: 0.1250
  192/50000 [..............................] - ETA: 605s - loss: 2.2894 - acc: 0.1198
…
2017-09-29 20:27:58.835677: I tensorflow/core/common_runtime/gpu/gpu_device.cc:1030] Creating TensorFlow device (/gpu:3) -> (device: 3, name: GeForce GTX 1070, pci bus id: 0000:0a:00.0)
50000 train samples
10000 test samples
(50000, 32, 32, 3) train shape
Using GPUs: /gpu:0, /gpu:1, /gpu:2, /gpu:3

MULTI-GPU MODEL: sequential_1
____________________________________________________________________________________________________
Layer (type)                     Output Shape          Param #     Connected to
====================================================================================================
input_1 (InputLayer)             (None, 32, 32, 3)     0
____________________________________________________________________________________________________
stage_cpuSliceIn0_Dev0 (Lambda)  (None, 32, 32, 3)     0           input_1[0][0]
____________________________________________________________________________________________________
stage_cpuSliceIn0_Dev1 (Lambda)  (None, 32, 32, 3)     0           input_1[0][0]
____________________________________________________________________________________________________
stage_cpuSliceIn0_Dev2 (Lambda)  (None, 32, 32, 3)     0           input_1[0][0]
____________________________________________________________________________________________________
stage_cpuSliceIn0_Dev3 (Lambda)  (None, 32, 32, 3)     0           input_1[0][0]
____________________________________________________________________________________________________
sequential_1 (Sequential)        (None, 10)            1250858     stage_cpuSliceIn0_Dev0[0][0]
                                                                   stage_cpuSliceIn0_Dev1[0][0]
                                                                   stage_cpuSliceIn0_Dev2[0][0]
                                                                   stage_cpuSliceIn0_Dev3[0][0]
____________________________________________________________________________________________________
concatenate_1 (Concatenate)      (None, 10)            0           sequential_1[1][0]
                                                                   sequential_1[2][0]
                                                                   sequential_1[3][0]
                                                                   sequential_1[4][0]
====================================================================================================
Total params: 1,250,858
Trainable params: 1,250,858
Non-trainable params: 0
____________________________________________________________________________________________________
None

	SUBMODEL SUMMARY: sequential_1
	_________________________________________________________________
	Layer (type)                 Output Shape              Param #
	=================================================================
	input_1 (InputLayer)         (None, 32, 32, 3)         0
	_________________________________________________________________
	conv2d_1 (Conv2D)            (None, 32, 32, 32)        896
	_________________________________________________________________
	activation_1 (Activation)    (None, 32, 32, 32)        0
	_________________________________________________________________
	conv2d_2 (Conv2D)            (None, 30, 30, 32)        9248
	_________________________________________________________________
	activation_2 (Activation)    (None, 30, 30, 32)        0
	_________________________________________________________________
	max_pooling2d_1 (MaxPooling2 (None, 15, 15, 32)        0
	_________________________________________________________________
	dropout_1 (Dropout)          (None, 15, 15, 32)        0
	_________________________________________________________________
	conv2d_3 (Conv2D)            (None, 15, 15, 64)        18496
	_________________________________________________________________
	activation_3 (Activation)    (None, 15, 15, 64)        0
	_________________________________________________________________
	conv2d2017-09-29 20:27:59.431449: I tensorflow/core/common_runtime/gpu/gpu_device.cc:1030] Creating TensorFlow device (/gpu:0) -> (device: 0, name: GeForce GTX 1070, pci bus id: 0000:05:00.0)
2017-09-29 20:27:59.431487: I tensorflow/core/common_runtime/gpu/gpu_device.cc:1030] Creating TensorFlow device (/gpu:1) -> (device: 1, name: GeForce GTX 1070, pci bus id: 0000:06:00.0)
2017-09-29 20:27:59.431493: I tensorflow/core/common_runtime/gpu/gpu_device.cc:1030] Creating TensorFlow device (/gpu:2) -> (device: 2, name: GeForce GTX 1070, pci bus id: 0000:07:00.0)
2017-09-29 20:27:59.431498: I tensorflow/core/common_runtime/gpu/gpu_device.cc:1030] Creating TensorFlow device (/gpu:3) -> (device: 3, name: GeForce GTX 1070, pci bus id: 0000:0a:00.0)
_4 (Conv2D)            (None, 13, 13, 64)        36928
	_________________________________________________________________
	activation_4 (Activation)    (None, 13, 13, 64)        0
	_________________________________________________________________
	max_pooling2d_2 (MaxPooling2 (None, 6, 6, 64)          0
	_________________________________________________________________
	dropout_2 (Dropout)          (None, 6, 6, 64)          0
	_________________________________________________________________
	flatten_1 (Flatten)          (None, 2304)              0
	_________________________________________________________________
	dense_1 (Dense)              (None, 512)               1180160
	_________________________________________________________________
	activation_5 (Activation)    (None, 512)               0
	_________________________________________________________________
	dropout_3 (Dropout)          (None, 512)               0
	_________________________________________________________________
	dense_2 (Dense)              (None, 10)                5130
	_________________________________________________________________
	activation_6 (Activation)    (None, 10)                0
	=================================================================
	Total params: 1,250,858
	Trainable params: 1,250,858
	Non-trainable params: 0
	_________________________________________________________________
	None

Not using data augmentation.
Train on 50000 samples, validate on 10000 samples
Epoch 1/5

  128/50000 [..............................] - ETA: 1285s - loss: 2.3247 - acc: 0.1094
  384/50000 [..............................] - ETA: 438s - loss: 2.3042 - acc: 0.1172
…
2017-09-29 20:29:49.012843: I tensorflow/core/common_runtime/gpu/gpu_device.cc:1030] Creating TensorFlow device (/gpu:5) -> (device: 5, name: GeForce GTX 1070, pci bus id: 0000:0c:00.0)
50000 train samples
10000 test samples
(50000, 32, 32, 3) train shape
Using GPUs: /gpu:0, /gpu:1, /gpu:2, /gpu:3, /gpu:4, /gpu:5

MULTI-GPU MODEL: sequential_1
____________________________________________________________________________________________________
Layer (type)                     Output Shape          Param #     Connected to
====================================================================================================
input_1 (InputLayer)             (None, 32, 32, 3)     0
____________________________________________________________________________________________________
stage_cpuSliceIn0_Dev0 (Lambda)  (None, 32, 32, 3)     0           input_1[0][0]
____________________________________________________________________________________________________
stage_cpuSliceIn0_Dev1 (Lambda)  (None, 32, 32, 3)     0           input_1[0][0]
____________________________________________________________________________________________________
stage_cpuSliceIn0_Dev2 (Lambda)  (None, 32, 32, 3)     0           input_1[0][0]
____________________________________________________________________________________________________
stage_cpuSliceIn0_Dev3 (Lambda)  (None, 32, 32, 3)     0           input_1[0][0]
____________________________________________________________________________________________________
stage_cpuSliceIn0_Dev4 (Lambda)  (None, 32, 32, 3)     0           input_1[0][0]
____________________________________________________________________________________________________
stage_cpuSliceIn0_Dev5 (Lambda)  (None, 32, 32, 3)     0           input_1[0][0]
____________________________________________________________________________________________________
sequential_1 (Sequential)        (None, 10)            1250858     stage_cpuSliceIn0_Dev0[0][0]
                                                                   stage_cpuSliceIn0_Dev1[0][0]
                                                                   stage_cpuSliceIn0_Dev2[0][0]
                                                                   stage_cpuSliceIn0_Dev3[0][0]
                                                                   stage_cpuSliceIn0_Dev4[0][0]
                                                                   stage_cpuSliceIn0_Dev5[0][0]
____________________________________________________________________________________________________
concatenate_1 (Concatenate)      (None, 10)            0           sequential_1[1][0]
                                                                   sequential_1[2][0]
                                                                   sequential_1[3][0]
                                                                   sequential_1[4][0]
                                                                   sequential_1[5][0]
                                                                   sequential_1[6][0]
…
2017-09-29 20:29:49.816959: I tensorflow/core/common_runtime/gpu/gpu_device.cc:1030] Creating TensorFlow device (/gpu:3) -> (device: 3, name: GeForce GTX 1070, pci bus id: 0000:0a:00.0)
2017-09-29 20:29:49.816966: I tensorflow/core/common_runtime/gpu/gpu_device.cc:1030] Creating TensorFlow device (/gpu:4) -> (device: 4, name: GeForce GTX 1070, pci bus id: 0000:0b:00.0)
2017-09-29 20:29:49.816973: I tensorflow/core/common_runtime/gpu/gpu_device.cc:1030] Creating TensorFlow device (/gpu:5) -> (device: 5, name: GeForce GTX 1070, pci bus id: 0000:0c:00.0)
____________
	conv2d_2 (Conv2D)            (None, 30, 30, 32)        9248
	_________________________________________________________________
	activation_2 (Activation)    (None, 30, 30, 32)        0
	_________________________________________________________________
	max_pooling2d_1 (MaxPooling2 (None, 15, 15, 32)        0
	_________________________________________________________________
	dropout_1 (Dropout)          (None, 15, 15, 32)        0
	_________________________________________________________________
	conv2d_3 (Conv2D)            (None, 15, 15, 64)        18496
	_________________________________________________________________
	activation_3 (Activation)    (None, 15, 15, 64)        0
	_________________________________________________________________
	conv2d_4 (Conv2D)            (None, 13, 13, 64)        36928
	_________________________________________________________________
	activation_4 (Activation)    (None, 13, 13, 64)        0
	_________________________________________________________________
	max_pooling2d_2 (MaxPooling2 (None, 6, 6, 64)          0
	_________________________________________________________________
	dropout_2 (Dropout)          (None, 6, 6, 64)          0
	_________________________________________________________________
	flatten_1 (Flatten)          (None, 2304)              0
	_________________________________________________________________
	dense_1 (Dense)              (None, 512)               1180160
	_________________________________________________________________
	activation_5 (Activation)    (None, 512)               0
	_________________________________________________________________
	dropout_3 (Dropout)          (None, 512)               0
	_________________________________________________________________
	dense_2 (Dense)              (None, 10)                5130
	_________________________________________________________________
	activation_6 (Activation)    (None, 10)                0
	=================================================================
	Total params: 1,250,858
	Trainable params: 1,250,858
	Non-trainable params: 0
	_________________________________________________________________
	None

Not using data augmentation.
Train on 50000 samples, validate on 10000 samples
Epoch 1/5

  192/50000 [..............................] - ETA: 1189s - loss: 2.3133 - acc: 0.0885
  384/50000 [..............................] - ETA: 604s - loss: 2.3416 - acc: 0.0859
…
